…
d, the Simulation and precision adjustment backend ad-justs all integer and fractional parts of the layers based onthe veri\ufb01cation data that are provided by the Software back-end.3. Experimental ResultsWe evaluate our design on a PYNQ board [18] that is anopen-source project from Xilinx that makes it easy to designembedded systems withXilinx Zynq SoC. PYNQ uses a low-cost Xilinx Zynq-7000 SoC containing an XC7Z020 FPGAalongside an ARM Cortex-A9 embedded processor. On the4--- Page 5 ---Table 1: The CNN architecture generated by the framework.Layer type Output size Output fmaps Param #Conv (32, 32) 32 320Activation (32, 32) 32 0Max pool (16, 16) 32 0Conv (16, 16) 64 18496Activation (16, 16) 64 0Max pool (8, 8) 64 0Conv (8, 8) 128 73856Activation (8, 8) 128 0Max pool (4, 4) 128 0Conv (4, 4) 128 147584Activation (4, 4) 128 0Max pool (2, 2) 128 0Dense (1, 100) 51300Activation (1, 100) 0Dense (1, 10) 1010Activation (1, 10) 0Total 292,566software side of PYQN, using the Python language and li-braries, designers can exploit the bene\ufb01ts of programmablelogic and microprocessors in Zynq to build more capableand exciting embedded systems. We make use of XilinxSDSoC 2016.4 as the primary design tool, which leveragesVivado HLS and Vivado to perform the actual synthesis andprogramming the FPGA implementation. We used CIF
…
